usage: train.py [-h] [--epoch_num EPOCH_NUM] [--batch_size BATCH_SIZE]
train.py: error: unrecognized arguments: --batch-size 4
SELDNet(
  (conv0): Conv2d(8, 16, kernel_size=(3, 3), stride=(1, 1), padding=(1, 1))
  (bn0): BatchNorm2d(16, eps=1e-05, momentum=0.1, affine=False, track_running_stats=True)
  (conv1): Conv2d(16, 16, kernel_size=(3, 3), stride=(1, 1), padding=(1, 1))
  (bn1): BatchNorm2d(16, eps=1e-05, momentum=0.1, affine=False, track_running_stats=True)
  (conv2): Conv2d(16, 16, kernel_size=(3, 3), stride=(1, 1), padding=(1, 1))
  (bn2): BatchNorm2d(16, eps=1e-05, momentum=0.1, affine=False, track_running_stats=True)
  (grus): GRU(32, 16, num_layers=2, batch_first=True, bidirectional=True)
  (sed_fc0): Linear(in_features=32, out_features=16, bias=True)
  (sed_fc1): Linear(in_features=16, out_features=12, bias=True)
  (doa_fc0): Linear(in_features=32, out_features=16, bias=True)
  (doa_fc1): Linear(in_features=16, out_features=36, bias=True)
)
steps 0
train loss: 0.5105538844530182, evaluation loss: 2.550897836840291
saveing model...
steps 1
steps 2
steps 3
steps 4
steps 5
train loss: 2.4872754737957967, evaluation loss: 2.50730011501878
saveing model...
steps 6
steps 7
steps 8
steps 9
steps 10
train loss: 2.444431043698953, evaluation loss: 2.454534548796146
saveing model...
steps 11
steps 12
…
